===============================================================================================
Layer (type:depth-idx)                        Output Shape              Param #
===============================================================================================
Resnet_LSTM_AV                                [1, 2]                    --
├─ResNet: 1-1                                 [1, 452]                  --
│    └─Conv2d: 2-1                            [1, 64, 56, 56]           9,408
│    └─BatchNorm2d: 2-2                       [1, 64, 56, 56]           128
│    └─ReLU: 2-3                              [1, 64, 56, 56]           --
│    └─MaxPool2d: 2-4                         [1, 64, 28, 28]           --
│    └─Sequential: 2-5                        [1, 256, 28, 28]          --
│    │    └─Bottleneck: 3-1                   [1, 256, 28, 28]          75,008
│    │    └─Bottleneck: 3-2                   [1, 256, 28, 28]          70,400
│    │    └─Bottleneck: 3-3                   [1, 256, 28, 28]          70,400
│    └─Sequential: 2-6                        [1, 512, 14, 14]          --
│    │    └─Bottleneck: 3-4                   [1, 512, 14, 14]          379,392
│    │    └─Bottleneck: 3-5                   [1, 512, 14, 14]          280,064
│    │    └─Bottleneck: 3-6                   [1, 512, 14, 14]          280,064
│    │    └─Bottleneck: 3-7                   [1, 512, 14, 14]          280,064
│    └─Sequential: 2-7                        [1, 1024, 7, 7]           --
│    │    └─Bottleneck: 3-8                   [1, 1024, 7, 7]           1,512,448
│    │    └─Bottleneck: 3-9                   [1, 1024, 7, 7]           1,117,184
│    │    └─Bottleneck: 3-10                  [1, 1024, 7, 7]           1,117,184
│    │    └─Bottleneck: 3-11                  [1, 1024, 7, 7]           1,117,184
│    │    └─Bottleneck: 3-12                  [1, 1024, 7, 7]           1,117,184
│    │    └─Bottleneck: 3-13                  [1, 1024, 7, 7]           1,117,184
│    │    └─Bottleneck: 3-14                  [1, 1024, 7, 7]           1,117,184
│    │    └─Bottleneck: 3-15                  [1, 1024, 7, 7]           1,117,184
│    │    └─Bottleneck: 3-16                  [1, 1024, 7, 7]           1,117,184
│    │    └─Bottleneck: 3-17                  [1, 1024, 7, 7]           1,117,184
│    │    └─Bottleneck: 3-18                  [1, 1024, 7, 7]           1,117,184
│    │    └─Bottleneck: 3-19                  [1, 1024, 7, 7]           1,117,184
│    │    └─Bottleneck: 3-20                  [1, 1024, 7, 7]           1,117,184
│    │    └─Bottleneck: 3-21                  [1, 1024, 7, 7]           1,117,184
│    │    └─Bottleneck: 3-22                  [1, 1024, 7, 7]           1,117,184
│    │    └─Bottleneck: 3-23                  [1, 1024, 7, 7]           1,117,184
│    │    └─Bottleneck: 3-24                  [1, 1024, 7, 7]           1,117,184
│    │    └─Bottleneck: 3-25                  [1, 1024, 7, 7]           1,117,184
│    │    └─Bottleneck: 3-26                  [1, 1024, 7, 7]           1,117,184
│    │    └─Bottleneck: 3-27                  [1, 1024, 7, 7]           1,117,184
│    │    └─Bottleneck: 3-28                  [1, 1024, 7, 7]           1,117,184
│    │    └─Bottleneck: 3-29                  [1, 1024, 7, 7]           1,117,184
│    │    └─Bottleneck: 3-30                  [1, 1024, 7, 7]           1,117,184
│    └─Sequential: 2-8                        [1, 2048, 4, 4]           --
│    │    └─Bottleneck: 3-31                  [1, 2048, 4, 4]           6,039,552
│    │    └─Bottleneck: 3-32                  [1, 2048, 4, 4]           4,462,592
│    │    └─Bottleneck: 3-33                  [1, 2048, 4, 4]           4,462,592
│    └─AdaptiveAvgPool2d: 2-9                 [1, 2048, 1, 1]           --
│    └─Sequential: 2-10                       [1, 452]                  --
│    │    └─Linear: 3-34                      [1, 452]                  926,148
├─LSTM: 1-2                                   [1, 1, 128]               364,544
├─ResNet: 1-3                                 [1, 452]                  (recursive)
│    └─Conv2d: 2-11                           [1, 64, 56, 56]           (recursive)
│    └─BatchNorm2d: 2-12                      [1, 64, 56, 56]           (recursive)
│    └─ReLU: 2-13                             [1, 64, 56, 56]           --
│    └─MaxPool2d: 2-14                        [1, 64, 28, 28]           --
│    └─Sequential: 2-15                       [1, 256, 28, 28]          (recursive)
│    │    └─Bottleneck: 3-35                  [1, 256, 28, 28]          (recursive)
│    │    └─Bottleneck: 3-36                  [1, 256, 28, 28]          (recursive)
│    │    └─Bottleneck: 3-37                  [1, 256, 28, 28]          (recursive)
│    └─Sequential: 2-16                       [1, 512, 14, 14]          (recursive)
…
